lattice_test/rnn_models/rnn_prev3_numerical/model_perfect.pt (torch, 1859 bytes, 3 tensors)

hmlp.mlp.0.weight f4 [4, 5]
000000 9c 9b db bd 44 52 0b bf a9 ab 56 3e d2 a5 08 bd
       -0.107230395 -0.544224 0.2096392 -0.033361264
000010 aa 4e 34 bf a5 7f 5c 3f 23 41 fc be 8f 4a b6 3e
       -0.7043253 0.8613227 -0.49268445 0.3560376
000020 89 36 17 3f ba 28 6d 3e 1c 49 bb 3e ec 06 15 3f
       0.5906759 0.23160067 0.36579216 0.58213687
000030 ec c6 7b be dd 9a 9a 3e 0c 90 8e be 7b 5b 9a be
       -0.24587601 0.30196276 -0.27844274 -0.3014792
000040 98 b0 8f be fd f2 13 bf 8e 85 58 3f 92 eb df 3d
       -0.28064418 -0.57792646 0.8457879 0.10933603

hmlp.mlp.0.bias f4 [4]
000000 fd 2b b4 bd 6b f1 8e 3d a2 0b 1b 3e 34 14 c3 3d
       -0.087974526 0.069796406 0.15141156 0.09525338

ymlp.mlp.0.weight f4 [1, 4]
000000 59 34 4d be e2 06 7d 3e dd 50 64 3f f8 f2 e9 3e
       -0.200395 0.24709657 0.8918589 0.45693183
