tasks/count_unique/results/1/model.pt (torch, 2131 bytes, 3 tensors)

hmlp.mlp.0.weight f4 [10, 11]
00000000: 56b9 553d 9a51 25be 20ad 21bd ba67 b63d
00000010: 2d0b 9f3e 7e13 923e e2a9 20be d33c 9e3e
00000020: f178 6ebd e784 e7bd dad3 3b3e b184 c93d
00000030: d50c b0bd f390 53bd cd01 2abe a6f0 49be
00000040: 6029 b53d bd71 83be f13a bfbc 8efb 203e
00000050: 413f 893c 6dd0 763e 012e 8e3e 1e19 573e
00000060: a8a3 9f3d b063 cebe 6bb6 d13d bd82 803e
00000070: 7d2c 473e 3b8b a53d 1dc9 083e 7909 053e
00000080: 8f11 8d3e 8735 513e eafb a23d cca8 03be
00000090: 7cc0 b4bc cf05 1f3e 54a2 9b3d 602f 813d
000000a0: 9247 693e 8068 47be a084 1f3e 80c1 ba3d
000000b0: 1969 39be 802b 323d af88 92be d126 be3e
000000c0: d241 a73e 6131 9ebe 534e 803e a407 503d
000000d0: 5166 b33d fef4 053e 798b cdbd 3546 fd3a
000000e0: 4578 1b3d 0632 f03b a149 cebe 3aba 0abd
000000f0: 9e67 10be 3cba 633d 518d e9bd 793d 703e
00000100: 931e fd3c 793e 56be 8c2a e73d 4685 9dba
00000110: be00 30be a7f2 cc3e 103f da3d aaf9 6dbe
00000120: 5a5b 1ebe 87a7 673e c3e3 8abe 4c7e 99bd
00000130: 878b 3a3e 4666 2bbe 90b5 383c c3ba 3f3e
00000140: 8c42 e73b 5fde 0e3d dee4 8dbe ccc9 75be
00000150: 0295 a9bd 3a33 433e 0dd7 07bd 95ad 8ebe
00000160: 8647 f03d dde6 8d3d 60f2 ae3e 472d eabe
00000170: 9314 ccbe 02c6 d13d a32f b5be 74e9 63be
00000180: 8454 753e e4c0 5fbe 7fbd 5ebe f9cc 613e
00000190: e9ec d53c 3094 403e ee4b 2c3d 30ab 383e
000001a0: 5805 4abe 0958 0b3e e645 473d 73b8 3dbe
000001b0: 0ea9 433e fcd6 90bd
0.052178703 -0.1614441 -0.039471745 0.08906503 0.31063214 0.28530496 -0.15689805 0.3090578
-0.058220807 -0.11304646 0.18342534 0.09839762 -0.085961975 -0.051651906 -0.1660225 -0.19720706
0.08845782 -0.25672713 -0.023343535 0.1572096 0.016753795 0.24102946 0.27769473 0.21005675
0.07794887 -0.4031043 0.102398716 0.25099745 0.19450565 0.08083197 0.13357969 0.12991895
0.2755246 0.20430575 0.07958205 -0.1285736 -0.02206444 0.1552956 0.07599321 0.06307864
0.22781208 -0.19473457 0.15577936 0.091189384 -0.18106498 0.043498516 -0.28619906 0.3713899
0.32667404 -0.30897048 0.25059757 0.050788537 0.0875975 0.13081738 -0.10036368 0.0019323291
0.037956495 0.007330182 -0.4029055 -0.033869006 -0.14102027 0.05559753 -0.11403907 0.2346095
0.030898368 -0.20922269 0.11287412 -0.0012017868 -0.17187783 0.4002888 0.106565595 -0.2323977
-0.15464535 0.226225 -0.27126893 -0.07494792 0.18217288 -0.16738233 0.011273757 0.18723588
0.0070574936 0.03488004 -0.27713674 -0.2400276 -0.08280374 0.1906251 -0.033164073 -0.27866808
0.11732392 0.06928799 0.34169292 -0.4573767 -0.39859447 0.10242845 -0.35387906 -0.22257024
0.23958021 -0.21850926 -0.21751975 0.22050847 0.026113944 0.18806529 0.0420646 0.18034053
-0.19728601 0.13607801 0.048650645 -0.18527393 0.19107458 -0.07072255

hmlp.mlp.0.bias f4 [10]
00000000: 10d7 c13d 19a0 3e3e b6f8 d23e 7e37 1bbf
00000010: 0c5d 9abe 38a1 0f3f af28 d9be cb3b d2bd
00000020: a685 9d3e baf4 3ebe
0.09464848 0.1861576 0.41205376 -0.6063155 -0.30149114 0.56105375 -0.42413852 -0.10265311
0.30766028 -0.18648043

ymlp.mlp.0.weight f4 [1, 10]
00000000: 4094 71be 4179 8b3e 2e5e 383e c8fd 313b
00000010: b0b9 dcbe dac4 543e 2e9b 44be 4323 f4bc
00000020: f76a 9f3e da1f a2be
-0.23591709 0.27240947 0.18004677 0.0027159322 -0.43110418 0.20778218 -0.19199821 -0.02980197
0.31136295 -0.31664926
