lattice_test/rnn_models/rnn_sum_last3_numerical/model_perfect.pt (torch, 1795 bytes, 3 tensors)

hmlp.mlp.0.weight f4 [3, 4]
00000000: 5788 ea3d 6394 a23e 18fa b8be 0ff4 86bf
00000010: ffa9 76bf 0c1d ca3e 861f 443e 37a2 1e3f
00000020: 4c99 e03c f5fb 073f 2f5e 02bf da6e d83e
0.11451786 0.31753835 -0.36128306 -1.0543231 -0.96353143 0.39475286 0.1915265 0.6196627
0.027416848 0.5311883 -0.5092496 0.42272073

hmlp.mlp.0.bias f4 [3]
00000000: 52be 87bd fa3b dbbd 1652 e7bd
-0.066280976 -0.10704799 -0.112949535

ymlp.mlp.0.weight f4 [1, 3]
00000000: cf0b 28be d5c2 2c3f 8996 773f
-0.16410755 0.6748479 0.96714073
