tasks/count_unique/results/2/model.pt (torch, 83847 bytes, 5 tensors)

hmlp.mlp.0.weight f4 [100, 101]
0.038682777 0.054642104 -0.018439865 0.060470335 0.13824202 0.08737829 -0.080879845 0.06070668
-0.0060956534 -0.045215745 0.075910345 0.004805447 -0.08803224 -0.1417382 -0.031096337 -0.008630515
0.0089825215 0.0016464933 0.02415668 -0.011261854 0.05088195 0.030248722 0.08033649 0.13706347
-0.0021441758 -0.07433431 0.034323875 -0.09144731 0.08018818 0.0775836 0.005930172 0.021132747
0.10441425 0.08839551 -0.11137059 -0.070806265 -0.042729314 0.0917985 0.02751544 0.029466564
0.07752347 -0.03626617 0.11732557 -0.019453632 -0.0548111 0.05508765 -0.08674514 0.08469282
0.034505118 -0.007087331 0.00014413804 -0.072798945 0.035261866 0.026344344 -0.018912494 0.043504167
0.0012911797 -0.06933839 -0.08106097 0.010857949 0.04181502 0.044268444 -0.051048413 0.036162555
0.02381822 -0.049183264 -0.023318928 0.070385806 -0.04567422 0.007679526 0.015393704 -0.05012171
-0.16874504 0.045737077 -0.102174394 -0.011424477 0.053053815 -0.048065815 0.046162046 0.07036393
-0.06510373 -0.045292534 -0.08825086 -0.10405692 -0.049772177 0.09061651 0.01097633 -0.03393353
0.17976424 0.06246477 0.0715106 -0.013203423 -0.061020866 -0.025359452 -0.07812749 -0.062488828
0.054500107 -0.08278061 -0.095573045 0.01978637 -0.00722593 0.12062002 -0.071207896 0.004510265
-0.06478547 0.05259015 0.024435554 -0.10401216 0.07999369 -0.0007958732 -0.02976617 -0.025614465
0.007383265 0.0011724039 -0.1973576 0.07874662 0.01513372 0.095285535 -0.0078421645 0.03527286
-0.12064711 -0.0230973 -0.030323796 0.049661145 -0.10955061 0.09635093 -0.048255913 0.10076461
-0.013171376 -0.08810235 0.08793178 -0.04994274 -0.1512408 -0.050405003 -0.072434664 0.06171343
0.057946797 -0.05379394 0.098210625 -0.010596745 0.007482372 0.040221155 -0.085495956 0.074599616
0.03395367 0.018646222 0.0013152395 0.1178615 0.0046685976 -0.04585994 0.044991866 0.010630634
-0.057858754 0.08976269 -0.0037136357 -0.08530957 0.025967134 -0.07957025 -0.13878104 -0.054315805
-0.03645428 -0.071395494 -0.011668204 -0.035448086 0.0077760457 0.009267379 0.01989415 0.061978538
0.035233803 0.0008328421 0.047167215 0.0023851474 -0.04140471 -0.02434292 0.13367124 0.024977328
0.13246487 0.028886976 0.07747871 0.09529545 -0.07701853 -0.02783509 -0.08730392 -0.04491007
-0.027307976 -0.06159241 0.01793237 -0.048451845 0.1063936 0.24551147 0.080579974 0.011395898
-0.051293213 -0.04198192 -0.09822319 0.057813633 0.022126583 0.028492376 -0.08499405 0.066409566
-0.06775117 0.0109099895 0.012452024 -0.020293586 0.02452682 0.049329482 -0.039671417 -0.11968082
-0.04693981 -0.0005052431 0.09595925 0.1490125 -0.037314583 -0.09798085 0.053597152 0.07939249
0.028327433 0.039344788 0.017776828 0.09581082 -0.05190559 -0.082566746 0.05609023 -0.06337811
-0.10074525 -0.114708655 -0.061299976 -0.0016130042 0.09451388 -0.1562626 -0.16934104 0.0671274
0.07104665 -0.05994686 0.00793391 0.010848218 0.012862572 -0.096878886 -0.08504224 -0.007718106
0.009592669 0.023033444 -0.06308962 0.0034092662 0.08741205 0.11458537 -0.105183035 0.086808
0.05287773 -0.015397833 -0.030991456 -0.09523502 0.078070715 -0.057763502 0.029650506 -0.013787417
00000000: d571 1e3d 66d0 5f3d 330f 97bc beaf 773d
00000010: 518f 0d3e 64f3 b23d 55a4 a5bd 91a7 783d
00000020: 0cbe c7bb 2534 39bd e276 9b3d 0377 9d3b
00000030: 3f4a b4bd d223 11be bfbd febc 0167 0dbc
00000040: 6d2b 133c 26cf d73a 3be4 c53c a483 38bc
00000050: 9769 503d 2bcc f73c 7587 a43d 5e5a 0c3e
00000060: 4d85 0cbb 963c 98bd 3197 0c3d ba48 bbbd
00000070: b339 a43d 27e4 9e3d e351 c23b 951e ad3c
00000080: 23d7 d53d b508 b53d 4416 e4bd e002 91bd
00000090: ef04 2fbd da00 bc3d 0f68 e13c dd63 f13c
000000a0: a0c4 9e3d d68b 14bd 6348 f03d 395d 9fbc
000000b0: 9b81 60bd 96a3 613d 70a7 b1bd 6e73 ad3d
000000c0: 3d55 0d3d d73c e8bb c323 1739 9d17 95bd
000000d0: bf6e 103d 18d0 d73c 60ee 9abc 6d31 323d
000000e0: cd3c a93a 4901 8ebd 4b03 a6bd 8ae5 313c
000000f0: 3a46 2b3d d452 353d 2418 51bd 301f 143d
00000100: 6d1e c33c 6474 49bd 5607 bfbc 6f26 903d
00000110: e414 3bbd 89a4 fb3b e035 7c3c 6c4c 4dbd
00000120: 80cb 2cbe cd56 3b3d cf40 d1bd bb2d 3bbc
00000130: f54e 593d a9e0 44bd 6a14 3d3d f71a 903d
00000140: 1b55 85bd aa84 39bd debc b4bd cb1b d5bd
00000150: e9dd 4bbd 2695 b93d 11d6 333c e3fd 0abd
00000160: 1e14 383e 0fdb 7f3d 2674 923d 2b53 58bc
00000170: 04f1 79bd a0be cfbc 4e01 a0bd 49f4 7fbd
00000180: 813b 5f3d e188 a9bd cdbb c3bd 0717 a23c
00000190: 7fc7 ecbb a107 f73d 72d5 91bd d8ca 933b
000001a0: 3fae 84bd c568 573d 122d c83c 5404 d5bd
000001b0: bbd3 a33d 25a2 50ba 2fd8 f3bc 6dd5 d1bc
000001c0: 51ef f13b 59ab 993a 1c18 4abe e845 a13d
000001d0: 6cf3 773c 1025 c33d 6c7c 00bc 467a 103d
000001e0: d515 f7bd 8d36 bdbc 9c69 f8bc 7c69 4b3d
000001f0: 125c e0bd a353 c53d fea7 45bd ad5d ce3d
00000200: c1cc 57bc 016f b4bd 9415 b43d c290 4cbd
00000210: dede 1abe 7a75 4ebd a058 94bd 39c7 7c3d
00000220: 9f59 6d3d 0957 5cbd a722 c93d f89d 2dbc
00000230: b02e f53b f0be 243d 8118 afbd afc7 983d
00000240: 0113 0b3d f6bf 983c 1d64 ac3a 5f61 f13d
00000250: 09fb 983b a2d7 3bbd 6449 383d 1c2c 2e3c
00000260: 4dfd 6cbd 80d5 b73d 7860 73bb c9b6 aebd
00000270: 07b9 d43c baf5 a2bd 9e1c 0ebe 407a 5ebd
00000280: 1551 15bd cd37 92bd ff2b 3fbc 0332 11bd
00000290: 33ce fe3b 34d6 173c 0ef9 a23c 35dd 7d3d
000002a0: 5251 103d 1653 5a3a 6932 413d 2250 1c3b
000002b0: fc97 29bd ce6a c7bc 1de1 083e 419d cc3c
000002c0: dfa4 073e 61a4 ec3c 28ad 9e3d 432a c33d
000002d0: e4bb 9dbd 6a06 e4bc 66cc b2bd 9ff3 37bd
000002e0: fab4 dfbc 5348 7cbd e8e6 923c 7175 46bd
000002f0: e3e4 d93d 5c67 7b3e 1d07 a53d dcb5 3a3c
00000300: d518 52bd 3cf5 2bbd 3d29 c9bd fdcd 6c3d
00000310: cf42 b53c d868 e93c 5c11 aebd bd01 883d
00000320: 20c1 8abd d0bf 323c 9303 4c3c bc3e a6bc
00000330: 78ec c83c b60d 4a3d 7f7e 22bd 381b f5bd
00000340: f543 40bd 4a72 04ba 4986 c43d bc96 183e
00000350: 2dd7 18bd 2faa c8bd b088 5b3d 8898 a23d
00000360: ef0e e83c 0028 213d b6a0 913c 7738 c43d
00000370: f59a 54bd c118 a9bd debe 653d 62cc 81bd
00000380: 8753 cebd 5fec eabd af15 7bbd 716b d3ba
00000390: 7e90 c13d 4e03 20be bd67 2dbe 177a 893d
000003a0: e880 913d d78a 75bd 3bfd 013c b9bc 313c
000003b0: 8abd 523c 7068 c6bd a02a aebd 2ae8 fcbb
000003c0: 922a 1d3c a2b0 bc3c 2135 81bd ff6d 5f3b
000003d0: 1705 b33d bcab ea3d 346a d7bd 65c8 b13d
000003e0: 5296 583d 3147 7cbc cbe1 fdbc 940a c3bd
000003f0: 8ae3 9f3d 6c99 6cbd 9ee5 f23c 9ee4 61bc

hmlp.mlp.0.bias f4 [100]
0.003532361 -0.00097042654 0.04627472 0.07516326 -0.068562925 -0.11383454 0.02121477 -0.0133847585
-0.0722078 -0.046022873 0.09119754 0.13992998 0.1517093 -0.07262047 0.15479092 -0.08786934
0.10633997 -0.11631335 0.15320286 -0.008451415 0.023214053 -0.04192121 -0.07447264 -0.14525497
0.06759567 -0.031212775 0.044412684 0.08097929 0.051403333 -0.027709346 0.07767487 -0.08481769
-0.013420049 -0.045499157 -0.013941289 0.09842747 -0.10655551 0.20798238 0.09284154 0.122225784
-0.020826872 -0.10196805 -0.087308876 -0.041352957 -0.06180528 -0.019202335 -0.11201863 -0.030583953
-0.031525016 -0.042269118 0.16180025 0.14308096 0.07456334 0.05065553 -0.06978824 -0.065379076
0.09400917 0.019984072 0.1303159 0.041552648 0.18716925 -0.07200227 0.013720253 0.112043984
-0.09700367 0.0016624794 0.23319943 -0.012514544 0.004464741 0.013617897 -0.036977757 -0.018978437
-0.07343595 -0.04080588 -0.023434306 0.026986849 -0.008564289 -0.13608927 -0.13273814 0.15223405
0.070404746 0.03475868 -0.07475735 -0.019355021 0.06210346 0.01941235 0.11617582 -0.10129276
0.05187251 0.1812283 -0.019325966 0.101034015 0.065828726 -0.09366722 -0.09944323 -0.09037131
0.087993935 0.05906316 0.13504334 0.014959957
00000000: 2f7f 673b 3964 7eba 908a 3d3d 32ef 993d
00000010: b86a 8cbd 1522 e9bd 99ca ad3c bf4b 5bbc
00000020: afe1 93bd 7b82 3cbd c7c5 ba3d ce49 0f3e
00000030: af59 1b3e 0aba 94bd 8381 1e3e d7f4 b3bd
00000040: c5c8 d93d b235 eebd 36e1 1c3e ce77 0abc
00000050: 662b be3c 93b5 2bbd 1d85 98bd b8bd 14be
00000060: 996f 8a3d efb1 ffbc 13ea 353d 78d8 a53d
00000070: 4d8c 523d b6fe e2bc 0114 9f3d e6b4 adbd
00000080: c4df 5bbc 535d 3abd 016a 64bc 5794 c93d
00000090: c639 dabd 55f9 543e b523 be3d 8351 fa3d
000000a0: 1e9d aabc a0d4 d0bd ffce b2bd b861 29bd
000000b0: 8927 7dbd 374e 9dbc 066a e5bd 338b fabc
000000c0: 6020 01bd 6222 2dbd f7ae 253e d183 123e
000000d0: aab4 983d 2c7c 4f3d 23ed 8ebd 77e5 85bd
000000e0: e187 c03d a3b5 a33c 8871 053e 1c33 2a3d
000000f0: 4ca9 3f3e ed75 93bd e9ca 603c 5177 e53d
00000100: dca9 c6bd 8de7 d93a d5cb 6e3e cd09 4dbc
00000110: f64c 923b 9a1d 5f3c fd75 17bd ab78 9bbc
00000120: 9665 96bd 1124 27bd 4df9 bfbc 8613 dd3c
00000130: 3b51 0cbc fc5a 0bbe 82ec 07be 3ee3 1b3e
00000140: 5d30 903d 1e5f 0e3d 621a 99bd 6c8e 9ebc
00000150: 3360 7e3d a606 9f3c 97ed ed3d 9472 cfbd
00000160: 4578 543d e993 393e 7d51 9ebc ecea ce3d
00000170: 36d1 863d 99d4 bfbd e4a8 cbbd 9814 b9bd
00000180: 2a36 b43d 36ec 713d cd48 0a3e 9c1a 753c

hmlp.mlp.2.weight f4 [100, 100]
-0.0714032 0.115427785 -0.031292632 -0.055001713 -0.017442182 -0.10852835 0.030249717 0.013060991
-0.120539166 -0.09453399 -0.030738417 0.12654915 -0.06846193 -0.07385848 -0.1827734 -0.020411218
0.024095677 -0.074379854 0.27295685 0.08567137 0.14076726 0.09289349 -0.0750006 0.046795953
-0.03498943 -0.0347864 -0.22132717 0.010837685 -0.037240997 0.0183721 0.030197663 0.053321835
0.06701989 0.017246993 -0.05335018 -0.00618987 0.022675075 -0.11933904 -0.059667118 0.02577851
-0.06698931 -0.021259679 -0.040312357 -0.23235694 0.11542918 0.06901884 0.1431069 -0.023754984
0.032113526 -0.03244953 0.004136816 -0.15142061 -0.119672075 0.056069 -0.0034960958 -0.004889889
-0.11627671 -0.031158743 -0.19616866 0.020888338 0.028416863 -0.08636184 0.052998796 0.03823363
0.03660155 0.07955036 0.45230004 -0.063954495 0.40237156 -0.024668694 0.17448452 0.005337533
0.0046271584 -0.022393318 -0.046679128 -0.07768889 0.2241506 -0.01488743 -0.048386585 -0.122477666
0.07520019 0.024825685 0.0056126695 0.04165363 -0.012718736 -0.174741 0.046693143 -0.01727855
0.033527475 -0.18145032 -0.016591148 0.018713204 -0.09058022 -0.0042080227 0.006277573 -0.08631501
0.037761834 0.052539784 0.028385058 0.09106448 -0.05963384 -0.121839106 0.075421 0.07063469
-0.00069140206 -0.08340156 0.0025364647 -0.054072425 0.114426345 0.016015168 0.08419919 -0.21235617
0.19562858 -0.08837093 0.421755 -0.06795193 -0.09217473 -0.0927337 -0.019643638 0.08616033
-0.09144994 0.068034865 0.016142078 -0.017667139 -0.07087598 -0.07511413 0.12384548 0.07668392
-0.056462377 -0.11201049 -0.09365346 -0.27176064 -0.042470194 -0.018646851 -0.021106476 0.121197745
0.079528 0.2121789 0.08632699 -0.019947205 -0.051148396 -0.07463437 0.058767434 0.26008898
-0.044429265 0.039312024 -0.02633887 0.06748685 -0.1228685 0.008335011 -0.008063008 -0.09677655
0.009342822 -0.18072255 0.20350003 0.06880337 0.03782183 -0.038315725 0.18475047 -0.1274728
0.10977487 -0.1652062 -0.11916005 -0.059068695 -0.037428625 -0.086452134 0.07244021 0.036557533
-0.024556806 -0.04452207 0.010277666 -0.07523151 0.013525523 -0.057917397 -0.015797703 -0.073944084
-0.099220514 -0.11647256 0.094629385 0.11662143 -0.045950573 -0.08213135 0.0897214 -0.0006807715
0.038753975 0.034464918 -0.036979306 0.01620595 -0.016701696 0.15314814 -0.011656917 0.124604136
0.09883989 -0.021193072 0.05455084 0.0018830987 -0.008832167 -0.06386556 0.11285219 0.02629966
-0.017790869 0.054430984 -0.058580626 0.03308551 0.037102144 -0.08547549 0.11531657 0.020142622
0.037030235 0.11852574 0.004094877 0.08607783 0.030467447 0.019498164 -0.17290439 0.011961418
0.09693104 -0.03437708 0.03848422 -0.029977607 0.1577997 -0.027000874 -0.0820481 0.079557806
0.14653939 0.0747737 -0.2463041 0.037358027 0.034259677 -0.016155532 0.10333477 0.11057799
-0.08135344 -0.07696996 -0.028846465 -0.061558664 -0.0577869 0.031036353 -0.043221515 -0.06775
0.085915275 -0.013934938 -0.0054029054 -0.0061973636 0.11272075 -0.06128645 -0.031905655 -0.055096284
0.04910967 -0.05415732 0.03687943 -0.04290922 -0.054266904 0.037394494 0.04752433 0.017867638
00000000: d73b 92bd 6765 ec3d b42c 00bd 7a49 61bd
00000010: e8e2 8ebc 1d44 debd 41ce f73c c4fd 553c
00000020: 3ddd f6bd 099b c1bd 22cf fbbc 1a96 013e
00000030: c535 8cbd 1d43 97bd f328 3bbe 6d35 a7bc
00000040: 4c64 c53c 7754 98bd 00c1 8b3e 7974 af3d
00000050: 4b25 103e f13e be3d ea99 99bd 1dad 3f3d
00000060: 1451 0fbd 2f7c 0ebd 97a3 62be 8c90 313c
00000070: 048a 18bd 1681 963c 1761 f73c ff67 5a3d
00000080: b941 893d 9149 8d3c b885 5abd 65d4 cabb
00000090: 14c1 b93c 0768 f4bd 8265 74bd 742d d33c
000000a0: b131 89bd c728 aebc 921e 25bd faee 6dbe
000000b0: 2266 ec3d c059 8d3d 9d8a 123e d099 c2bc
000000c0: 7989 033d cce9 04bd 218e 873b 010e 1bbe
000000d0: a216 f5bd 9ca8 653d c11e 65bb 5d3b a0bb
000000e0: 7c22 eebd 9f40 ffbc 70e0 48be 051e ab3c
000000f0: 7bca e83c 7ade b0bd 4415 593d de9a 1c3d
00000100: 82eb 153d 4deb a23d df93 e73e 93fa 82bd
00000110: a503 ce3e 0016 cabc 12ac 323e 79e6 ae3b
00000120: 6b9f 973b 3172 b7bc 9d32 3fbd 5a1b 9fbd
00000130: bc87 653e 68ea 73bc 0331 46bd 92d5 fabd
00000140: 8f02 9a3d 3c5f cb3c 7cea b73b ff9c 2a3d
00000150: 3f62 50bc 4eef 32be 4f41 3f3d bf8b 8dbc
00000160: 1b54 093d 1dce 39be 29ea 87bc 6f4c 993c
00000170: 1f82 b9bd 74e3 89bb 19b4 cd3b edc5 b0bd
00000180: 27ac 1a3d f533 573d c887 e83c 0480 ba3d
00000190: 9d42 74bd c886 f9bd 5376 9a3d eca8 903d
000001a0: 353f 35ba 70ce aabd d13a 263b 0c7b 5dbd
000001b0: 5c58 ea3d 3e32 833c a070 ac3d e573 59be
000001c0: dc52 483e d1fb b4bd 45f0 d73e 622a 8bbd
000001d0: 1bc6 bcbd 2beb bdbd b2eb a0bc d474 b03d
000001e0: 1b4a bbbd dd55 8b3d 643c 843c adba 90bc
000001f0: 6d27 91bd 70d5 99bd b3a2 fd3d 760c 9d3d
00000200: 1845 67bd c165 e5bd 63cd bfbd 3624 8bbe
00000210: 3af5 2dbd 48c1 98bc 7de7 acbc 8636 f83d
00000220: 93df a23d 6d45 593e 34cc b03d 5268 a3bc
00000230: fb80 51bd e8d9 98bd 1fb6 703d 622a 853e
00000240: 76fb 35bd a505 213d 9dc4 d7bc 8c36 8a3d
00000250: 7ba2 fbbd 928f 083c b51a 04bc c932 c6bd
00000260: a312 193c 550f 39be 5062 503e c8e8 8c3d
00000270: 10eb 1a3d f3f0 1cbd 3a2f 3d3e 3b88 02be
00000280: a6d1 e03d d02b 29be 2f0a f4bd 04f2 71bd
00000290: c24e 19bd d10d b1bd 885b 943d 5abd 153d
000002a0: 5b2b c9bc c65c 36bd a863 283c fa12 9abd
000002b0: 289a 5d3c cb3a 6dbd 2f6a 81bc ff6f 97bd
000002c0: 2034 cbbd 2a89 eebd 0dcd c13d 37d7 ee3d
000002d0: ab36 3cbd 7b34 a8bd dabf b73d cd75 32ba
000002e0: 7dbc 1e3d 162b 0d3d 9d77 17bd 57c2 843c
000002f0: ffd1 88bc ded2 1c3e a7fc 3ebc 7430 ff3d
00000300: 916c ca3d 189d adbc b470 5f3d 4fd2 f63a
00000310: cbb4 10bc f2cb 82bd 0d1f e73d 6272 d73c
00000320: 28be 91bc 06f3 5e3d 3df2 6fbd ac84 073d
00000330: 6bf8 173d c60d afbd 182b ec3d 2402 a53c
00000340: 04ad 173d a0bd f23d 512e 863b 9349 b03d
00000350: de96 f93c 9dba 9f3c d90d 31be d3f9 433c
00000360: c883 c63d fbce 0cbd a1a1 1d3d 9993 f5bc
00000370: 3f96 213e f030 ddbc d608 a8bd 34ef a23d
00000380: 6c0e 163e f422 993d 2437 7cbe bb04 193d
00000390: e053 0c3d 9b58 84bc 2ea1 d33d b776 e23d
000003a0: a29c a6bd 6da2 9dbd 6c4f ecbc f024 7cbd
000003b0: f5b1 6cbd f33f fe3c 0b09 31bd 83c0 8abd
000003c0: 59f4 af3d 5e4f 64bc db0a b1bb 4113 cbbb
000003d0: 23da e63d 8007 7bbd 81af 02bd a4ac 61bd
000003e0: 3927 493d 11d4 5dbd e30e 173d 94c1 2fbd
000003f0: f946 5ebd f82a 193d dfa8 423d 275f 923c

hmlp.mlp.2.bias f4 [100]
-0.11731096 0.051677644 -0.03898779 0.08462798 0.039426483 -0.08272428 -0.06579336 -0.0564164
0.08972234 -0.028313352 -0.14662397 -0.031505976 -0.07246158 -0.018000904 -0.11069366 0.009782749
-0.07767391 0.09668692 -0.06459879 -0.035331972 0.18057689 -0.043896303 -0.019450458 0.10520633
-0.043114457 -0.0059728124 -0.029974343 -0.074872606 0.09196697 -0.10621584 0.105409674 0.13401954
-0.0481237 -0.017296588 -0.088498555 0.04279995 -0.106833324 0.09980709 -0.0424811 0.017052492
0.06039114 0.040110942 0.14123246 -0.14336447 0.03141374 -0.043226097 -0.02673046 -0.08776116
-0.018302456 0.09237263 0.014476303 -0.057822946 -0.019884404 -0.043276597 0.09218663 0.029390804
-0.062332485 0.12337043 0.10651612 -0.106580645 0.0682662 0.017932752 0.022332314 0.024656093
0.064753555 0.15370251 0.022576308 0.023809724 0.04086096 -0.14300813 0.08039337 -0.012344251
-0.0031724586 -0.0312416 -0.06909905 -0.12815836 0.056800842 0.09501986 0.06204177 -0.081060745
-0.052001145 -0.0705745 -0.1162817 -0.006303125 0.059259493 -0.016364224 -0.008262931 -0.027892329
0.13795313 0.1403493 -0.09237926 0.09945815 -0.056107715 -0.0938768 0.027372872 0.015479377
-0.10158646 0.02774728 0.12602882 -0.10778119
00000000: bb40 f0bd f0ab 533d a9b1 1fbd 6f51 ad3d
00000010: aa7d 213d 596b a9bd abbe 86bd e214 67bd
00000020: 59c0 b73d 67f1 e7bc 9824 16be 690c 01bd
00000030: bd66 94bd a276 93bc 5cb3 e2bd d347 203c
00000040: 8013 9fbd cb03 c63d 5f4c 84bd 42b8 10bd
00000050: 26e9 383e 9ccc 33bd 9156 9fbc 6b76 d73d
00000060: c998 30bd 95b7 c3bb c18c f5bc cf56 99bd
00000070: 2e59 bc3d b187 d9bd 07e1 d73d 6b3c 093e
00000080: 5b1d 45bd 93b1 8dbc bb3e b5bd 004f 2f3d
00000090: 6ecb dabd a967 cc3d a900 2ebd abb1 8b3c
000000a0: b35c 773d 5f4b 243d 3e9f 103e 23ce 12be
000000b0: b2ab 003d d90d 31bd d6f9 dabc 20bc b3bd
000000c0: 08ef 95bc dd2d bd3d 042e 6d3c c1d7 6cbd
000000d0: 9ee4 a2bc cd42 31bd 58cc bc3d fcc4 f03c
000000e0: 5950 7fbd a3a9 fc3d 2025 da3d f446 dabd
000000f0: 26cf 8b3d b5e7 923c 42f2 b63c 93fb c93c
00000100: 839d 843d 3164 1d3e f3f1 b83c 9c0c c33c
00000110: d25d 273d b970 12be 47a5 a43d 8b3f 4abc
00000120: 06e9 4fbb 62ee ffbc cd83 8dbd f23b 03be
00000130: 00a8 683d c699 c23d 831f 7e3d 2d03 a6bd
00000140: 27ff 54bd 5d89 90bd 1a25 eebd 728a cebb
00000150: 15ba 723d 440e 86bc 3f61 07bc 747e e4bc
00000160: 9643 0d3e bab7 0f3e 5631 bdbd b7b0 cb3d
00000170: 34d1 65bd 7b42 c0bd 133d e03c 369d 7d3c
00000180: 900c d0bd 444e e33c b30d 013e 62bc dcbd

ymlp.mlp.0.weight f4 [1, 100]
-0.34726787 0.12002628 -0.13451026 -0.18302421 0.13575913 -0.15837924 -0.14000344 -0.18615396
0.14448155 0.21566457 0.18469131 -0.10981598 0.087960176 -0.076298796 -0.14956541 -0.09756464
0.15945975 -0.21426424 -0.13608283 0.16770893 -0.20590125 -0.1532585 -0.19087535 0.17007653
-0.12148767 -0.13005543 -0.22377405 -0.6194065 0.16047637 -0.13778003 0.114011444 -0.4347442
0.16064635 -0.17528078 -0.30397505 -0.112104975 -0.15758926 -0.00016550053 -0.10529513 0.15981224
0.13005345 -0.1964976 0.09014966 0.10166964 -0.20850065 0.17834353 0.21319507 -0.10016213
-0.10952675 0.2745895 0.09770456 0.14511769 -0.12011432 0.19663404 0.19924764 0.52084357
-0.20580009 -0.29962847 0.13508745 -0.14697091 0.11273522 -0.20518622 -0.23678157 0.1737337
0.12266222 -0.22149967 0.121986076 0.14411718 -0.15866742 -0.04620121 0.18860352 0.16060662
0.18440315 0.2775377 -0.1664707 0.18779457 0.17420763 0.07925171 -0.1570067 0.11735951
-0.14668289 -0.17330568 -0.047566082 0.15963003 0.14778009 0.17114408 0.1876633 -0.18736309
0.09108616 -0.056326944 0.17245176 0.13724354 -0.0972268 -0.04146943 -0.18492988 -0.12286123
0.16554351 -0.1018436 -0.020056767 -0.20161839
00000000: 18cd b1be 57d0 f53d 0fbd 09be b36a 3bbe
00000010: 7104 0b3e 2b2e 22be 105d 0fbe 259f 3ebe
00000020: f9f2 133e 2cd7 5c3e b81f 3d3e 33e7 e0bd
00000030: 7724 b43d 8b42 9cbd ad27 19be f8cf c7bd
00000040: 6b49 233e 1668 5bbe 4c59 0bbe e4bb 2b3e
00000050: c7d7 52be ccef 1cbe d474 43be 8b28 2e3e
00000060: 87ce f8bd 402d 05be 0625 65be 6d91 1ebf
00000070: eb53 243e 3516 0dbe d57e e93d cb96 debe
00000080: 7a80 243e ce7c 33be 9ea2 9bbe 4b97 e5bd
00000090: 145f 21be 368a 2db9 f9a4 d7bd d2a5 233e
000000a0: bb2c 053e ab36 49be 63a0 b83d 2c38 d03d
000000b0: 3281 55be b09f 363e cf4f 5a3e ce21 cdbd
000000c0: 904f e0bd ff96 8c3e 5419 c83d bb99 143e
000000d0: 7ffe f5bd 6f5a 493e 9307 4c3e 0156 053f
000000e0: 42bd 52be e768 99be 5d54 0a3e 8b7f 16be
000000f0: b9e1 e63d 561c 52be de76 72be 3fe7 313e
00000100: 5436 fb3d cfd0 62be d6d3 f93d 7493 133e
00000110: b679 22be 7b3d 3dbd 4821 413e 1076 243e
00000120: 2ed4 3c3e 6c19 8e3e 4c77 2abe 384d 403e
00000130: 7c63 323e b84e a23d 5dc6 20be 2f5a f03d
00000140: 0a34 16be 0b77 31be a7d4 42bd 0e76 233e
00000150: aa53 173e 6540 2f3e cf2a 403e 1cdc 3fbe
00000160: 618b ba3d 15b7 66bd 3297 303e 9289 0c3e
00000170: d81e c7bd d9db 29bd 425e 3dbe ab9e fbbd
00000180: 3d84 293e 6193 d0bd 174e a4bc 0d75 4ebe
