lattice_test/rnn_models/rnn_prev2_numerical/model_perfect.pt (torch, 1795 bytes, 3 tensors)

hmlp.mlp.0.weight f4 [3, 4]
0	0xbe19d140	-0.15021229
1	0x3e574591	0.21022631
2	0x3b23e428	0.0025007818
3	0xbf8e87a9	-1.113515
4	0xbf614dc2	-0.88009274
5	0x3ea720f9	0.32642344
6	0x3e0445ab	0.12917201
7	0x3e9d151f	0.30680177
8	0x3ec43ec5	0.3832914
9	0x3f4de5ae	0.8042859
10	0xbe349645	-0.17635448
11	0x3d5e4feb	0.054275434

hmlp.mlp.0.bias f4 [3]
0	0x3c452b7e	0.012034295
1	0x3bfee1ba	0.0077783735
2	0x3d7c85e0	0.06165111

ymlp.mlp.0.weight f4 [1, 3]
0	0x3db537fd	0.088485695
1	0x3e194169	0.14966358
2	0x3f778e18	0.9670119
