lattice_test/rnn_models/rnn_prev4_numerical/model_perfect.pt (torch, 1859 bytes, 3 tensors)

hmlp.mlp.0.weight f4 [5, 6]
00000000: 2f4a 883d 801c b7be 65c0 66be 39b0 04bf
00000010: 9447 e3be 22f4 633e 1b97 98be d25f 603e
00000020: 408d d6be b655 7a3e 32ef 35bf a22b bebd
00000030: f3e7 24bf 669e 233f 6f3e dabe 684c 98bd
00000040: 43dc 923e 329c 8e3e d884 623e e649 7d3e
00000050: 39bd 0d3f 4b94 fd3e 79d3 b1be 0853 f63e
00000060: 9ce4 13be 27e2 643f b6d4 463f e911 e8be
00000070: 488e b5be 001c 5fbe
0.066547744 -0.3576393 -0.2253433 -0.51831394 -0.44390547 0.22261098 -0.29802784 0.21911553
-0.4190464 0.24446759 -0.7106811 -0.09285666 -0.64416426 0.6391357 -0.42625758 -0.07436448
0.2868367 0.27853543 0.22120988 0.24735221 0.55366856 0.495272 -0.34731653 0.48110223
-0.14442676 0.8940758 0.7766832 -0.45326164 -0.35460114 -0.21788025

hmlp.mlp.0.bias f4 [5]
00000000: 9e4a 003d 24c0 9b3c e647 8cbc e4c2 4cbb
00000010: a84d e43a
0.03132116 0.019012518 -0.017124128 -0.0031244094 0.0017418163

ymlp.mlp.0.weight f4 [1, 5]
00000000: ef32 67bf 849b 13bf b233 ce3e 950e 013e
00000010: 4bca ed3d
-0.90312093 -0.57659173 0.40273815 0.12603219 0.1161085
