tasks/gcd/model.pt (torch, 284487 bytes, 6 tensors)

Wh.weight f4 [256, 256]
000000 d3 27 f6 be 99 2b 92 be 7d 1d a2 3e 79 4b 45 be
       -0.48077258 -0.28548887 0.31663123 -0.19267072
000010 14 2e 2d 3d 0c cf 3c bd 82 aa 05 bf ea f4 6e be
       0.04228027 -0.046095893 -0.522133 -0.23335615
000020 4a 0f b4 3e c0 31 fe bc 94 77 63 be eb e0 65 3c
       0.35167915 -0.031029582 -0.22213584 0.014030675
000030 e5 cc 51 bc ae 80 41 3a a3 e1 50 3e 58 c1 d8 3d
       -0.012805198 0.00073815405 0.20398574 0.105837524
000040 b2 30 e8 3b 82 b2 0a 3e 5e 7d bf bc 28 ce 90 be
       0.007085883 0.13544658 -0.02337521 -0.28282285
000050 bc f7 c8 bc 3d c4 40 3e 85 89 18 bd 1b 58 56 be
       -0.024532191 0.18824859 -0.037240524 -0.20932047
000060 36 98 8c be ac 8c 01 3d 30 b0 04 3e 9b 6d f6 bd
       -0.27459878 0.031628296 0.12957835 -0.12032624
000070 1e 3f 6c bd e2 e1 59 bd d9 bf ba 3d c3 cd 4c bd
       -0.05767738 -0.053193934 0.09118623 -0.050000917
000080 0f db 60 3e f9 0f ba be 4c 45 0f 3e c6 9e 87 3d
       0.21958564 -0.3634031 0.13991278 0.066220805
000090 de cb a4 bd f1 41 b7 3c 53 5b b4 3e cc 08 83 be
       -0.08046697 0.02237031 0.35225925 -0.2559265
0000a0 27 5d 60 3d 73 77 ed bd 15 45 95 3c 66 32 ec 3d
       0.054776337 -0.11595049 0.018221417 0.1153305
0000b0 ad 07 ad 3c 4a a7 cd 3d 09 10 d7 3d 61 f2 02 3e
       0.021121824 0.100416735 0.10501105 0.12787773
0000c0 8d 6a c8 bc 0a 9e 60 be 07 1b 65 3c 05 93 76 be
       -0.02446487 -0.21935287 0.013983495 -0.24079521
0000d0 6f 0a 40 3e 9b f1 5b be e8 98 e6 3d 37 9b 51 be
       0.1875398 -0.21478884 0.11259633 -0.20469366
0000e0 7f e8 a8 3e b9 6c ca 3c 86 a6 9b 3e cf 08 56 be
       0.3298988 0.024710046 0.30400485 -0.20901798
0000f0 d6 d4 a0 3e 97 b2 e6 3e b1 a1 9e 3c 0d cc bb 3d
       0.3141238 0.45058128 0.01936421 0.09169779
000100 eb f5 99 3e a2 94 6c be e2 1b 86 bc 51 62 8e bd
       0.30070433 -0.23103574 -0.016370717 -0.06952346
000110 18 fd ae 3d d8 f5 3f 3e cf 8e ad 3e b8 29 6c be
       0.085443676 0.18746126 0.33898017 -0.2306279
000120 8b b2 fb 3d 9e 53 10 be 2f 7a 4f bd ac bc c8 3e
       0.12289914 -0.14094397 -0.050653633 0.39206445
000130 29 63 03 bd 1b 32 e7 3b af 50 ec bd 51 63 1a 3f
       -0.03207699 0.0070555336 -0.11538827 0.60307795
000140 4b cc cd bd 07 11 83 be 0f 71 a7 3e f3 92 7e be
       -0.100487314 -0.25598928 0.32703444 -0.24860744
000150 24 5c 94 bd 44 90 87 bd da a0 9a 3c 33 2f b8 3b
       -0.07244137 -0.06619313 0.018875528 0.005620861
000160 15 11 41 3e bf 30 c5 3d 7c fc 73 be 30 3d 10 3e
       0.18854173 0.09628438 -0.23826784 0.14085841
000170 12 02 1b 3c e1 1b de 3b de fe 0d 3d 9f 59 83 3e
       0.009460943 0.006778226 0.03466689 0.25654313
000180 2a 14 f7 bd c8 63 80 bc 90 fb 52 3d 6f ef 94 b9
       -0.12064393 -0.01567258 0.05150944 -0.00028407152
000190 f8 4f a2 be 3a 2f fe be 41 96 62 3e 00 47 ea bd
       -0.31701636 -0.49645406 0.2212763 -0.114393234
0001a0 62 14 a0 3e a9 c9 64 3e bd 01 99 bd 0a 24 7d 3d
       0.3126555 0.22342552 -0.07471035 0.061801948
0001b0 5a ff 14 bd 1f e7 02 bc 6f de 8e 3d da 92 cd bb
       -0.036376335 -0.007989674 0.069760196 -0.0062736096
0001c0 ef 0d 1c be 7a 98 4e 3b db 7f ea bc 86 9f 1c be
       -0.1523969 0.0031523989 -0.02862542 -0.15295228
0001d0 39 df b4 bd 93 ea a8 be 0a 72 b2 be fb bc 95 be
       -0.08831639 -0.32991466 -0.3485263 -0.29245743
0001e0 30 ba 8d be fe 04 b4 3e 2f b2 58 be be 76 f9 bc
       -0.27681112 0.3516006 -0.21161722 -0.030452128
0001f0 6e d9 a5 be ba f0 86 3e 69 56 c4 3c 93 6b a0 be
       -0.32392448 0.26355535 0.023966985 -0.31332073
000200 52 8d 3e 3e 82 16 c7 bc e3 c8 a3 3d a5 49 b4 3d
       0.18608597 -0.024302725 0.079973005 0.08803109
000210 6e cc 59 bd e8 42 9f bd d6 0b b8 3e c1 d3 9f 3e
       -0.053173475 -0.07776433 0.3594653 0.31216243
000220 86 42 46 be 5a d5 1c 3e a4 da c9 bd cf 51 0a 3e
       -0.19361314 0.15315762 -0.098561555 0.1350777
000230 37 30 a9 3e e3 09 ba 3d 7e 25 a9 bd 46 a1 bf be
       0.33044598 0.09083917 -0.08259104 -0.3742773
000240 78 51 ea 3d f2 6c 99 bd 56 1b f8 3c d6 4d 0b be
       0.1144132 -0.07491483 0.030286472 -0.13603911
000250 b6 54 e3 3e 2e 76 ad bd b0 b3 b8 bc 93 4f 02 3e
       0.44400567 -0.084698066 -0.02254662 0.12725668
000260 cc c9 4b be a4 4a af 3c 58 7f 13 bd 2b 14 12 be
       -0.19901198 0.021397896 -0.036010116 -0.14265506
000270 35 0b bb be cb 63 c4 3c 16 8c 79 be 12 c5 8e 3e
       -0.36531988 0.023973366 -0.24369845 0.27884728
000280 ad 26 b1 3d 8f b4 d0 bd f2 ff 2c be 6d 1f cd 3e
       0.08649955 -0.10190689 -0.1689451 0.40063038
000290 5f 70 b3 3e dd 8e 7a bd 24 9e 0b 3e a3 e9 9b be
       0.3504667 -0.0611714 0.13634545 -0.30451688
0002a0 11 de 6c be 4f c4 57 3d ba 76 dc 3a 18 2b de 3e
       -0.23131587 0.05267745 0.0016820051 0.43392253
0002b0 ad 2a ac bd 0f c2 86 bc 6f 5c ea 3c c1 56 35 bd
       -0.08406577 -0.016449956 0.028608529 -0.044272188
0002c0 18 66 6c 3d 67 e3 51 bd 2a e3 47 be 28 8d 61 be
       0.05771455 -0.05124226 -0.1952025 -0.22026503
0002d0 08 92 1c 3d 04 26 63 3d 1d 09 7e be 7d 3b d3 3c
       0.038225204 0.055456176 -0.24808164 0.025785202
0002e0 a9 2b bd bb b7 6a b3 3e 2c 7c 19 be 1d 9d 9c bb
       -0.005773027 0.35042354 -0.14988774 -0.0047794716
0002f0 b7 88 16 bd 9c 2d 86 bd e5 50 49 be a3 23 49 3d
       -0.036751475 -0.06551668 -0.19659765 0.04910625
000300 ff 0d 58 be 33 e1 72 3d 72 8e c0 3e 19 47 a2 3e
       -0.21099089 0.059296798 0.37608677 0.31694868
000310 e8 f9 ac be 02 9a 04 bd da 08 59 3d 88 d5 80 bd
       -0.33784413 -0.032373436 0.052986957 -0.06290728
000320 d1 43 1c be ae f8 97 3d 28 17 7f bd a5 21 37 bd
       -0.15260245 0.07420479 -0.062277943 -0.04470982
000330 b9 c4 9a be 91 4d b6 3e 0f 0f 13 be 7c 57 ae bd
       -0.30228212 0.35606053 -0.14361213 -0.0851278
000340 93 0b cf bd f1 27 2a 3e f0 e4 1d be 66 8c 8f 3b
       -0.101096295 0.16616799 -0.15419364 0.0043807505
000350 d0 24 ea bd 8e 44 86 3e 9b 2c a6 bc 14 fe 7a bc
       -0.11432803 0.26224178 -0.020284941 -0.015319366
000360 79 65 45 bd 90 b8 3e 3d d9 a0 28 be cc 0f 74 be
       -0.048192475 0.04656273 -0.16467609 -0.23834151
000370 6f 83 aa 3d 93 98 78 3c b6 0a 66 be 9f d9 e0 3d
       0.0832585 0.015173095 -0.22465023 0.10979008
000380 10 d2 08 3e 01 ba 1a 3e bd f2 29 bd cb 48 93 3d
       0.13361382 0.15110017 -0.04149126 0.071916185
000390 3a 1b 31 bd 4b b0 bc bd 2f bc 8a 3a e6 25 bc be
       -0.043238856 -0.09213313 0.0010584648 -0.36747664
0003a0 cc 4f 98 3d d9 32 0d 3d 1d f4 1b be 99 9c 90 be
       0.07437095 0.03447232 -0.1522984 -0.28244475
0003b0 6f 7b 2d be 53 fd 5e 3e 5c 0f 18 be e2 1b da bc
       -0.16941617 0.21776323 -0.14849609 -0.026624624
0003c0 54 08 2d 3e a1 fb ab be 2d e9 b0 bd ac 78 ae bd
       0.16897708 -0.33590415 -0.08638225 -0.0851911
0003d0 2e 2a 16 3c ed 03 03 3c b7 cf 90 be 72 6a 25 bd
       0.00916533 0.007996541 -0.28283474 -0.040384717
0003e0 59 f5 d1 3c 53 b5 b5 bc 1b ee 6e 3e 59 95 a0 3d
       0.025629686 -0.022181189 0.23333018 0.07840986
0003f0 be 68 49 3c c9 26 80 3d ad 79 90 3d 9c a9 4c 3d
       0.012293039 0.06257398 0.07054458 0.04996644

Wh.bias f4 [256]
000000 0c 74 0b 3b 75 a4 a6 3d c9 9d b1 bc e7 cc 0a bd
       0.0021278886 0.081368364 -0.021681683 -0.033886816
000010 aa c8 61 bc 87 4c 7a bb 1c 71 01 bc 7a d9 76 3c
       -0.013780752 -0.0038192587 -0.0079005025 0.015066499
000020 6c f7 53 bd 30 25 4e bd cf 8d 74 bc ce b6 2c 3d
       -0.05174963 -0.050328434 -0.014926388 0.042166524
000030 e7 90 63 bd 61 1b 8a bc 1a 27 0b bd 34 52 16 3d
       -0.05555811 -0.016858758 -0.033972837 0.03669949
000040 43 be 04 bd cb f8 54 bc 2a ad 80 3d 60 4f 18 bd
       -0.03240801 -0.01299877 0.062830284 -0.037185073
000050 ed 16 b1 bc 4c b3 b3 3c 6f 65 c8 3b fd 67 41 3d
       -0.021617377 0.021936081 0.0061156075 0.04721831
000060 82 42 3b bc 91 69 33 bd d2 4d 9f 3c db 18 43 bd
       -0.011429431 -0.043801848 0.019446287 -0.047631126
000070 25 ad 94 3c 80 84 86 bb 8d 60 42 bd 59 00 46 bd
       0.018148968 -0.0041051507 -0.04745536 -0.048340175
000080 e8 c4 74 3c 4d f3 ba bb 3e cb 80 bd c5 fb 6c bd
       0.014939524 -0.0057052732 -0.06288765 -0.057857294
000090 11 84 f3 bc cb cc 5a 3d 01 19 df bc b5 22 0c bd
       -0.02972606 0.053417962 -0.027233602 -0.034212787
0000a0 a0 fe 1b bd 67 b5 66 3d 84 58 42 bd 99 8a ab bc
       -0.038084626 0.056325343 -0.047447696 -0.020940112
0000b0 21 6a e0 3c f5 ca 7d bd 1c c7 39 bd 59 15 bb 3c
       0.027394356 -0.061961133 -0.0453559 0.022837328
0000c0 12 2f 5d bd d5 f1 33 3c de 31 bf 3b a2 ba bf bc
       -0.053999968 0.01098295 0.005834802 -0.023404423
0000d0 c4 17 83 ba 59 71 45 3d 46 c7 01 bd dd 62 83 3d
       -0.001000159 0.0482038 -0.031684183 0.06415341
0000e0 6c 87 bf 3c 7e 37 3f bd 28 ba 12 bb 54 0f e6 3b
       0.023380004 -0.04668378 -0.002238879 0.00702087
0000f0 bc 27 45 3d 34 2b ca bc 5a c9 2a 3d 15 d3 42 bd
       0.048133597 -0.024678804 0.04169593 -0.047564585
000100 c1 25 65 bd 03 83 69 3d fd df aa bc db 24 fe 3c
       -0.055944208 0.057009708 -0.020858759 0.031023433
000110 37 d5 39 bd 96 f1 8f bd d5 01 21 3d 8c ba 0a 3d
       -0.045369353 -0.07028501 0.039308388 0.03386931
000120 4f e2 c0 bc 73 25 d4 bc d1 53 89 bd 51 5b d1 3a
       -0.023545412 -0.025896763 -0.0670544 0.0015972649
000130 58 8d 2a bd 7f d0 21 bd 5d 6f be bc d4 8e 81 bd
       -0.041638702 -0.039505478 -0.023246462 -0.063260704
000140 83 8c 1e 3d 06 9a a9 3c 68 b9 08 3d 65 ff 81 3d
       0.03870822 0.020703327 0.033379942 0.06347541
000150 98 db e0 bc 52 8c 39 3d ef 44 5c bd 35 14 22 bd
       -0.02744846 0.045299836 -0.053776678 -0.039570052
000160 88 2c 37 bd 6b 6f 21 3b e7 85 1b 3c ee 75 55 3d
       -0.044720203 0.002463306 0.009492374 0.05211442
000170 cd f5 2d 3d ff 89 0a 3d 57 b2 3a 3d 58 35 9e bb
       0.042470742 0.03382301 0.045580234 -0.0048281364
000180 0a f9 a4 3c f7 ef b3 3c 84 1f ec 3b 45 24 68 bc
       0.020138282 0.02196501 0.0072059054 -0.014168804
000190 e4 ee b4 bb b7 db ca bc 0f f9 4c 3c fc 5f b5 bc
       -0.005521642 -0.024762971 0.012510552 -0.022140495
0001a0 d2 30 8c 3c 47 8e a4 bd 8a 5d 1a 3d e5 3c 71 3c
       0.017113123 -0.0803495 0.037686862 0.014723991
0001b0 59 d5 2c bd 47 4d 94 bc 15 42 6b ba 66 7f 20 3d
       -0.04219565 -0.018103255 -0.00089743856 0.039183997
0001c0 6c fc 4d bd 05 4e 4b bd 7e f5 d7 bc ff 96 c6 3c
       -0.050289556 -0.049634952 -0.026362177 0.024241922
0001d0 68 87 28 3d 5d 26 b2 bc 6f 86 27 bd a8 5d 00 3d
       0.04114476 -0.021746809 -0.04089969 0.031339318
0001e0 1f 09 20 3d 7e ca 3d bc 57 47 d2 3c d8 68 3b 3d
       0.0390712 -0.011583922 0.025668783 0.045754284
0001f0 2e c6 dd 3c 9f d5 1d bc f5 58 fc bb ed 15 3f bd
       0.027072039 -0.009633451 -0.007701034 -0.04665177
000200 e6 50 6c bd b8 d7 3e 3d db a3 ff 3a a8 32 21 3c
       -0.05769434 0.046592444 0.0019503789 0.009838738
000210 8c 34 6f bc d6 52 92 bd e3 1b 91 3c 03 10 90 bc
       -0.0145999305 -0.07144706 0.017713493 -0.01758576
000220 fc 39 83 bd 69 36 d6 bc dd dd 12 3d bc 73 b7 bb
       -0.06407544 -0.026148992 0.035856117 -0.0055985134
000230 8c 74 0c 3d cf b0 99 3c f1 71 af 3c 41 76 bf bc
       0.034290835 0.018761067 0.021416636 -0.023371818
000240 a2 0e 92 3c 1a 0b 27 bc 74 48 19 bd 9d 52 5d bd
       0.017829243 -0.010195518 -0.037422612 -0.054033864
000250 ba f2 9b bd 23 41 7b 3d fd 7e e6 3c a5 d5 f0 bc
       -0.07614656 0.061341416 0.028136725 -0.029398749
000260 95 7e 05 3d b8 d7 8d 3c a8 e3 b2 bb 05 95 56 bd
       0.03259142 0.017314777 -0.0054592676 -0.05238821
000270 73 4d 4f 3d 07 a6 93 3c 4b 42 1f 3d e5 d0 6b bd
       0.05061097 0.018023504 0.03888158 -0.057572264
000280 37 64 9e bc e7 df 48 3d d5 db b1 3c 99 e1 b5 bd
       -0.019334896 0.049041655 0.02171127 -0.0888092
000290 ab f3 47 bd 5a c9 31 bd 70 42 5a bd 43 e9 2a bd
       -0.048816364 -0.043404914 -0.053286016 -0.041726362
0002a0 b9 df 1b 3d 90 f7 1f bd cc ef d4 bc b1 e2 ce 3b
       0.038055155 -0.039054453 -0.02599325 0.006313645
0002b0 75 ea f9 bc 1a 38 5a 3d 1a 54 b8 3a f9 47 1a bd
       -0.030507306 0.05327616 0.001406315 -0.037666295
0002c0 80 1c 59 3d 99 41 89 bb b0 a3 4a 3d 9f 64 7e bc
       0.053005695 -0.004188728 0.04947251 -0.01552692
0002d0 9e 1a 44 3d b8 b2 ad 3b ac 3c 87 3d b6 2a a2 3c
       0.047876947 0.005300846 0.06603369 0.019795757
0002e0 82 a9 1b bc 1d 82 59 bd 6b 09 33 3d fa bb 1d 3c
       -0.009500863 -0.0531026 0.043710154 0.009627337
0002f0 a9 86 7e bc cd f2 5f bd 20 1b d1 bb 96 05 c9 bb
       -0.015535035 -0.054674912 -0.0063814074 -0.006134699
000300 10 2d 5b 3c 7b ae 8c 3c e2 85 8e bc cf 3a 3c bd
       0.013377443 0.017173043 -0.017397825 -0.04595452
000310 2b 0d 8f 3c 28 aa 3e bd 51 57 7d 3d 05 46 81 3c
       0.017462334 -0.046548992 0.06185085 0.015780458
000320 9d 4c 11 3d 4e 00 e5 3c 37 71 0b 3c 28 2e 58 bd
       0.035473455 0.027954247 0.008510879 -0.052778393
000330 8e 1f df bc 83 c6 a2 3c ce d1 0a 3d fb bb 3e bd
       -0.027236726 0.019870048 0.03389149 -0.04656599
000340 b2 ad a8 bc ad 3e 2c 3d 7d eb 8e 3d aa 1a 47 bc
       -0.020590637 0.04205196 0.069785096 -0.012152353
000350 13 f1 12 bd 43 82 a3 3c 68 be fe bc a5 ff f5 bb
       -0.035874438 0.019959575 -0.031096652 -0.007507282
000360 ff ea e1 3c 42 e9 c5 ba 6d dc 7e bd f3 ab 1e 3c
       0.027577875 -0.0015099423 -0.062221933 0.009684551
000370 5a ee 2d bc c2 e1 c2 3c c3 1d af 3b 6c e1 2d bd
       -0.0106159095 0.02378929 0.005344124 -0.042451307
000380 83 49 f5 3c 3d be db bc d4 83 25 3d 3e 9a b3 3b
       0.02994228 -0.026824111 0.040408924 0.0054810336
000390 38 54 61 bd 47 ee 9b 3c 60 58 64 bd 53 c0 4e bc
       -0.055011958 0.019034518 -0.055748343 -0.012619096
0003a0 b9 cf 69 bd 19 0e 8f 3c ab 3b de b9 bd e3 7a 3d
       -0.057082865 0.017462777 -0.00042387596 0.061252344
0003b0 26 81 01 bb b0 60 8b bd 95 5f c0 3c ab 57 38 bb
       -0.0019760816 -0.06805551 0.023483077 -0.0028128426
0003c0 be 37 a9 3c c2 41 d4 3b 96 95 26 bd c8 52 80 3d
       0.020656463 0.0064775655 -0.04067 0.06265789
0003d0 ad 55 df 3c ce 22 1f bd 79 82 73 bd 42 76 7a bc
       0.027262533 -0.03885155 -0.0594506 -0.015286984
0003e0 c8 3f e0 3c cf 02 85 bb 8d a6 6d bb 88 b6 50 bd
       0.027374163 -0.0040591727 -0.0036262602 -0.050955325
0003f0 e6 99 4c 3c 83 50 26 3d 91 13 33 3c 74 ec 64 bc
       0.012487864 0.040604126 0.010929958 -0.01397239

Wx.weight f4 [256, 2]
000000 e0 e4 1a bf d8 b8 c5 3e 72 de 0c 40 e5 81 c4 3f
       -0.60505486 0.38617587 2.201077 1.5352141
000010 52 1b e6 bf 9c e2 fb bf 46 97 42 be fd e6 a1 bf
       -1.7977087 -1.9678531 -0.19003019 -1.2648617
000020 24 3a 42 3e dc 9d 0b bf 6d 2a 25 bf e1 f0 78 3e
       0.18967491 -0.5453775 -0.6451786 0.24310638
000030 e8 d0 07 3d 30 8c 82 bd 75 0f b0 bf 96 37 28 3f
       0.033158213 -0.06374395 -1.3754717 0.6570982
000040 f9 8d 17 c0 d2 14 00 c0 f6 9e 9c 3d ce 2c c0 bf
       -2.3680403 -2.0012708 0.07647507 -1.5013673
000050 38 c1 84 3f 09 48 04 40 7f 0e 97 bd 19 8d d1 3d
       1.0371466 2.0668967 -0.07375812 0.1023199
000060 ba 1f 91 3f 14 d8 4b 3f bc ba 50 3f 7d 5a 8a 3f
       1.1337807 0.79626584 0.81534934 1.0808865
000070 3f b9 d3 bf b0 af 02 c0 8f 39 8f 3e 6e 02 bb be
       -1.6540908 -2.041973 0.279736 -0.3652529
000080 b7 c8 ef 3e d3 7d 08 be 76 82 e1 bf 35 01 00 bf
       0.4683282 -0.13329248 -1.7617939 -0.5000184
000090 fd 12 94 3f 87 0c 59 bf 40 2b 0a 3f 47 a2 d2 3f
       1.1568295 -0.8478474 0.53972244 1.6455773
0000a0 dd 6a 45 bf bf 3f be be 10 2e 07 c0 55 77 fe bf
       -0.77116185 -0.3715801 -2.1121864 -1.9880167
0000b0 91 93 80 3e ec 7f a4 be 65 5a 41 bf 16 97 7d bf
       0.25112584 -0.32128847 -0.75528556 -0.99058664
0000c0 d8 3c d1 3f 0f 7f 05 3f 77 eb 50 bf 38 36 87 3f
       1.6346693 0.52147 -0.8160929 1.0563421
0000d0 d9 ee 9d 3f 8f 45 c1 3f 29 2e 3f 3f 63 67 ba 3f
       1.2338516 1.5099353 0.7467981 1.4562801
0000e0 dc d4 37 c0 2f 79 1f c0 f9 fe 15 3f 7a da b6 bb
       -2.872367 -2.4917715 0.5859218 -0.0055802437
0000f0 6a b2 81 3f 87 77 48 3f 07 eb 97 3f 52 f2 cd 3f
       1.0132573 0.78307384 1.18686 1.6089575
000100 01 ae 08 c0 49 3d ff bf 6c 3e f8 bf d1 98 d1 bf
       -2.1356204 -1.9940578 -1.939405 -1.6374761
000110 9a 15 88 be 22 39 da 3e bc 2e 02 40 37 fc 0e 3f
       -0.2657898 0.42621714 2.0341024 0.558536
000120 56 5f 03 be da fc 30 bf 2a f4 5a bf c1 fa b6 bd
       -0.12829337 -0.6913582 -0.85528815 -0.08934546
000130 1d d6 f5 bf 1e 78 6d bf 47 c9 e4 3f 4e 37 f8 3f
       -1.9205967 -0.9276141 1.7873925 1.9391878
000140 21 33 97 3e c1 58 99 3f 19 80 be 3d be cf 2e be
       0.29531196 1.198021 0.093017764 -0.17071435
000150 e3 96 2a 3f 82 0d 27 3f dd 78 74 3e 85 11 aa bf
       0.66636485 0.65254986 0.2387423 -1.3286597
000160 7e e4 1d bf 23 73 0d be e1 e8 52 3f 01 0e c0 3e
       -0.61676776 -0.13813452 0.82386595 0.37510684
000170 db 17 ba 3e fe e2 a1 3d b1 97 2a bf a2 6b 4a 3f
       0.36346325 0.079046234 -0.6663771 0.79070485
000180 4a e7 10 bf 25 1a 1a bf c1 9d b4 bf c3 bf 84 bf
       -0.5660292 -0.60196143 -1.4110643 -1.0371021
000190 da e3 97 3f fc 7a ad 3f f9 b1 db 3f 93 76 00 40
       1.186641 1.3553157 1.7163688 2.0072372
0001a0 62 c1 06 bf 3f fa 6a bf c3 f8 a3 3f 27 76 88 3e
       -0.5263883 -0.91788095 1.2810291 0.26652643
0001b0 e3 ea 9e bf 31 63 18 3e 0e fa c2 3f 6f ec be 3f
       -1.2415432 0.14881589 1.5232561 1.4915904
0001c0 2a 29 43 bf fc 05 5f bf 9e 9b 2c 3f b3 14 ab 3f
       -0.76234686 -0.87118506 0.67424953 1.3365692
0001d0 5d 57 e2 bf 69 d3 b6 bf 74 df f3 3f d1 ae 08 40
       -1.7682911 -1.4283267 1.9052567 2.13567
0001e0 ca be b6 bf ef a6 13 bf b9 ec 1e c0 1f 54 8d bf
       -1.4276974 -0.57676595 -2.4831984 -1.1041297
0001f0 10 81 60 3f 66 c1 37 3f 8d 34 19 bf 55 2c 89 be
       0.87696934 0.7177948 -0.5984581 -0.26791635
000200 54 ba 04 c0 6b 8b e3 bf 5e b4 29 3f 41 44 fe bd
       -2.0738726 -1.7776922 0.66290843 -0.12415362
000210 57 08 f2 3d b3 18 1f bf dd 33 31 c0 14 41 27 c0
       0.11817997 -0.62147063 -2.7687905 -2.613347
000220 12 8c d2 be c9 3a b2 3e f0 99 4a 3e ba 7f 55 bf
       -0.4112249 0.34810475 0.19785285 -0.8339802
000230 40 df 04 c0 f5 21 12 bf 71 fe 03 3f 0c 83 d1 3f
       -2.076126 -0.57083064 0.5156012 1.6368117
000240 97 06 e2 bf 44 4a d3 bf 73 2d 64 3f eb 71 8e 3f
       -1.7658261 -1.6507039 0.8913185 1.1128515
000250 12 7d d6 bf 6c 1a 09 c0 5f d2 f9 be 78 da ae bf
       -1.6756918 -2.1422377 -0.48793313 -1.3660421
000260 79 f9 ff 3f f0 32 cb 3f 4d 70 9e 3f 5a 31 67 3e
       1.9998008 1.587492 1.2378021 0.2257742
000270 30 46 f5 3e a2 fa 1c 3f 9d 48 1d c0 4d a4 00 c0
       0.4790511 0.61319935 -2.457557 -2.0100281
000280 98 33 3c bf 9b 63 f4 bc 89 a4 44 3f 74 05 5e bf
       -0.73516226 -0.029832652 0.7681356 -0.8672707
000290 80 d5 be bf e5 f2 b8 bf f1 21 fb 3f 5d e6 ae 3f
       -1.4908905 -1.4449126 1.9619733 1.3664051
0002a0 25 e1 27 bf cc 65 2c 3f ca b5 b5 3d ad cd 7c 3e
       -0.6557792 0.6734283 0.08872564 0.24687834
0002b0 1f a6 3d bf b0 ba d0 be 38 03 ce 3d 7c e4 d4 be
       -0.74081606 -0.4076743 0.10059208 -0.4158057
0002c0 6c 06 87 be fb 64 0e c0 c9 34 94 bf 38 81 49 be
       -0.26372087 -2.2249134 -1.1578609 -0.196782
0002d0 90 ed cc 3f 06 bf db 3f 19 d0 5b 3f df 3a ed 3f
       1.6009998 1.7167671 0.85864407 1.8533591
0002e0 87 bb fe be 7d 5c 77 3e 51 55 3e bf 51 52 af 3e
       -0.49752447 0.24156375 -0.7434893 0.3424249
0002f0 55 ef d0 3f d2 29 dc 3f c1 2a 81 bf 70 bc 65 3e
       1.6323038 1.7200263 -1.0091172 0.22435164
000300 f2 13 eb 3e ae 65 be 3f 46 b2 09 40 4a 54 1e 40
       0.45913655 1.487478 2.151506 2.4738946
000310 5c df 76 3f 0c 0d 9b 3f f8 50 6b bf de f2 ee be
       0.9643457 1.2113357 -0.91920424 -0.46669668
000320 79 b3 c8 3f 69 ac f3 3f 14 e3 ec bf 7b c0 c1 be
       1.5679771 1.903699 -1.8506799 -0.37842163
000330 08 69 75 bf 14 28 34 bf 44 9f f9 bf ab a2 29 c0
       -0.9586339 -0.70373654 -1.9501729 -2.6505535
000340 08 7a 10 c0 58 a9 ff bf 5a 6a d9 be 03 70 b5 be
       -2.2574482 -1.9973555 -0.42463952 -0.3543702
000350 78 0d ab 3f 45 80 49 3f 94 bd 16 3e 39 b1 92 be
       1.3363485 0.7871135 0.14720756 -0.28650835
000360 fc cb e9 be 38 aa 89 3c 50 f9 42 3d b4 4f 32 bf
       -0.4566344 0.0168048 0.047601044 -0.6965287
000370 59 e9 72 3f 7b f6 7f 3f 33 a8 e6 bf 4b 18 ed be
       0.9488731 0.99985474 -1.802008 -0.46307597
000380 50 87 7d 3f 78 4d 86 3e 4c 0c e1 3f ed ce af 3f
       0.99034595 0.2623098 1.7581878 1.3735024
000390 8f 9b ee bf 30 f5 1e c0 da 5d f3 bf f0 ac 09 c0
       -1.8641223 -2.483715 -1.9013016 -2.1511803
0003a0 c4 48 97 3e e5 33 40 3e 52 5f 04 40 6c c2 bd 3f
       0.29547703 0.18769796 2.068318 1.4824958
0003b0 16 7f 07 40 95 76 0e 40 8d 23 04 3f 80 aa 48 3f
       2.1171317 2.2259877 0.51616746 0.7838516
0003c0 3e 16 0e c0 59 f1 15 bf 58 d2 11 c0 19 97 fc bf
       -2.2201076 -0.5857139 -2.2784634 -1.9733611
0003d0 b3 4d 9e 3f 05 a4 04 40 d9 a8 4b 3f 28 3b 50 3f
       1.2367462 2.072511 0.79554516 0.81340265
0003e0 e2 ae 13 3f 35 7d cd 3e aa 1c 25 c0 33 17 1f c0
       0.57688725 0.40134588 -2.5798745 -2.485791
0003f0 a4 58 02 40 b4 65 94 3f 9d 9b 9c 3f 5b b3 f4 3f
       2.0366602 1.1593537 1.223499 1.9117235

Wx.bias f4 [256]
000000 54 a0 9f bd c2 14 bb be 75 70 d4 be 7c 47 a4 3e
       -0.07794252 -0.36539274 -0.41492048 0.32085788
000010 be d8 02 bf 6d a9 a0 be e7 a4 60 3e 7e 68 c1 3e
       -0.5111197 -0.31379262 0.21937905 0.37775034
000020 81 fe 0b bb 00 7c a4 bc a8 b3 07 bf be a3 9b 3e
       -0.0021361413 -0.020078659 -0.5300851 0.30398363
000030 8e ee d5 3e 7e 6a 18 bf 84 fb 31 3f 8a 97 26 3f
       0.41783565 -0.59537494 0.6952441 0.6507498
000040 7a bb 33 be 45 ad 0d bf d8 3a 19 bf 05 1d 33 bf
       -0.17551985 -0.55342513 -0.59855413 -0.69966155
000050 c0 54 87 bd d4 be cb 3e 86 68 8c be db 55 29 3f
       -0.06607962 0.39794028 -0.27423495 0.6614663
000060 73 f1 e8 3e d2 7c ab 3e f5 a3 f9 3e 0d 9e 1b bf
       0.4549671 0.33493668 0.48757902 -0.6078804
000070 78 24 04 3f 50 5c 3a 3e e0 e1 87 bc 34 5a 0f bf
       0.51618147 0.18199277 -0.016587198 -0.55997014
000080 6c 9e 1f bf 6e 0f 87 3d 16 ed 5a be 06 ea 89 be
       -0.6235111 0.0659474 -0.21379504 -0.26936358
000090 09 4e f5 be e4 75 25 be 0a 94 0d 3e 0e f8 8c 3e
       -0.479111 -0.16158253 0.13826004 0.27533
0000a0 f0 d5 9a bd ae 5b 33 bf 48 83 8d bd a8 09 b0 3e
       -0.075603366 -0.7006177 -0.069098055 0.34382367
0000b0 8b 3e f3 3e bd 9f 28 3e 13 49 a2 be 36 0b 03 bf
       0.47508654 0.16467185 -0.31696376 -0.5118898
0000c0 1b 6c 89 3d b9 37 8e bd 2f b8 b3 3e 19 f9 99 3e
       0.067100726 -0.06944222 0.35101458 0.3007286
0000d0 c0 f5 0c bf 76 89 35 3e ea a9 0c 3f 05 bf 18 3e
       -0.55062485 0.17728218 0.5494677 0.14916618
0000e0 57 45 89 3e 1d 7f 8d be cd b1 2e bf f5 89 2c 3f
       0.26810715 -0.27636042 -0.6824005 0.67398006
0000f0 a5 f2 98 bd 15 f6 2b bf 97 06 1d bf 29 3f 46 be
       -0.07468156 -0.67172366 -0.6133818 -0.19360031
000100 32 d9 fe bc 2d 39 09 3d 56 4a 81 3e 33 72 f1 be
       -0.031109426 0.033501793 0.25252026 -0.4715744
000110 f8 79 c6 3e 7f 3c 76 3e f9 21 2c 3f 8d 34 62 be
       0.3876493 0.24046515 0.6723934 -0.22090359
000120 ee e1 14 3f a3 a3 2d be eb 1e ee 3e c3 1a 0b bf
       0.5815724 -0.16956954 0.46507964 -0.5433771
000130 c9 81 d2 3e 35 94 97 3e 88 d5 a9 be 08 4d 0a 3d
       0.41114643 0.2960526 -0.33170724 0.03376487
000140 7a d7 28 3f 1a 44 b6 be 91 bc f1 3e 98 ca 7d be
       0.6595379 -0.35598832 0.47214177 -0.24784315
000150 d5 91 2b 3f 5f 53 32 bf 2d 0c 8f be 7a 49 11 3f
       0.670194 -0.69658464 -0.27938977 0.5675274
000160 38 59 14 bd a7 6a aa be 49 1b d0 3e 87 ef 02 be
       -0.036217898 -0.33284494 0.40645817 -0.12786685
000170 57 f6 1b 3e 3c 56 7d be 94 ad 9c bd 2e f1 15 3f
       0.1523069 -0.24739927 -0.07650295 0.58571136
000180 64 de 1a 3e 60 6c a2 bd ee 02 00 bf 95 c5 32 3f
       0.15123898 -0.07930827 -0.5000447 0.69832736
000190 7c 69 c3 3e 39 ed 43 be 1f 94 13 3f 94 7f 08 3f
       0.38166416 -0.19133462 0.5764789 0.5331967
0001a0 20 15 05 bf 97 c5 0b 3f fc c0 e3 be bf 7f 19 3f
       -0.5198536 0.54598373 -0.44483173 0.5996055
0001b0 46 24 a7 bc 68 b3 32 be b0 0d e4 3e e4 1d 2e bf
       -0.020403039 -0.1745125 0.44541693 -0.6801436
0001c0 ad 4f b9 bd ff 3a c0 3e 83 33 16 bd 24 7f 0c 3c
       -0.090484 0.3754501 -0.03667022 0.008575235
0001d0 93 40 28 bf 11 aa cf 3e 3c 73 0a 3e 12 16 18 3f
       -0.6572353 0.40559438 0.13520521 0.59408677
0001e0 4d 8c e0 be e4 a3 f5 3b 03 57 eb be a7 48 23 bf
       -0.4385704 0.007496344 -0.45964822 -0.63782734
0001f0 f3 3f 27 3f 92 58 27 3e 97 52 20 bf 4c 99 81 3e
       0.65331954 0.1634238 -0.6262602 0.2531227
000200 d7 f4 de 3e 2f 81 f7 3e 98 cc 2d bf 03 c1 bf 3d
       0.43546173 0.48340747 -0.6789031 0.09362986
000210 2a 8a 86 3e 79 a6 df 3e 0b 87 f9 be 86 5e 5d 3e
       0.26277286 0.43681696 -0.48735842 0.21618089
000220 7d 49 35 bd 8e 29 dc 3e 94 8f 04 be 63 3a 1d 3f
       -0.044259537 0.43000454 -0.12945396 0.61417216
000230 4e 4a ad 3c 2c 25 fd bd ad 14 d1 bd 82 24 8d 3e
       0.021153595 -0.123606056 -0.10209022 0.27566916
000240 d6 41 9f be 1c c0 2c 3f f9 c0 a1 be f0 ab c1 3e
       -0.31104916 0.67480636 -0.3159254 0.3782649
000250 ca f3 f8 be fc b6 c5 be e1 ea ea 3e c6 9c e2 be
       -0.48623496 -0.38616168 0.45882323 -0.44260234
000260 f9 01 6a 3e 01 89 2f bf ed 62 19 3d e0 6d 94 be
       0.22852315 -0.68568426 0.03744786 -0.28990078
000270 fd 57 91 3e af d5 20 be f0 b3 4e 3e da 97 fc 3d
       0.28387442 -0.15706514 0.20185828 0.12333651
000280 07 b7 b9 3e d6 59 0b be 34 a5 80 be 3a 24 c7 be
       0.3627245 -0.13608488 -0.2512604 -0.38894826
000290 b9 d8 14 3f 7f 49 f2 bd f3 58 c2 3e 74 01 0a 3f
       0.5814319 -0.118304245 0.37958488 0.5390847
0002a0 98 82 ca 3d ab f8 26 3f 7e 87 3d bd 2c fa ba be
       0.0988819 0.6522319 -0.046271794 -0.3651899
0002b0 34 af 93 3e 24 81 a7 be 22 97 7c be 87 73 0c be
       0.28844607 -0.32715714 -0.24667028 -0.13715945
0002c0 a5 a0 d0 be ff 7c 27 bf 24 87 e4 3e 1b e1 99 3d
       -0.40747562 -0.65425104 0.44634354 0.075136386
0002d0 68 f2 fd be 46 75 4e be bb 0a 09 bf 1c aa 6c be
       -0.49599004 -0.20161924 -0.53532 -0.23111767
0002e0 f5 e7 32 3f 22 9d 06 bf 4a 3c d1 3e 0c 05 14 bf
       0.6988519 -0.52583516 0.4086631 -0.578202
0002f0 86 bf b6 be 55 be f3 be 8a b6 33 3e 51 1c 37 3d
       -0.35692996 -0.4760615 0.17550102 0.04470474
000300 57 3b 25 3f cd 68 fb be 5d 0b b4 3d 5a 0f 3c 3e
       0.6454367 -0.49103394 0.0879123 0.18365231
000310 de dc 21 3f 8a 4f ab 3e bc 15 cc be cc ca 75 be
       0.6322764 0.3345912 -0.39860332 -0.24003142
000320 f5 95 09 3f 97 61 86 3e c3 67 11 3f 11 6b a3 3e
       0.5374444 0.2624633 0.5679895 0.31917623
000330 a2 3d 1e 3e c3 35 36 be ea bd 84 be ba 96 cc be
       0.15453199 -0.17793946 -0.25926143 -0.39958745
000340 91 99 15 3e ce 73 57 be f7 36 e1 3d 5e f8 63 bd
       0.14609362 -0.2104027 0.10996812 -0.055656783
000350 0d 29 08 bf 37 67 31 3f 73 f6 24 bf b1 7a 9c be
       -0.5318764 0.6929812 -0.6443855 -0.30562356
000360 2b a3 a0 3e ac 77 f0 3d 0a c0 90 3e 17 a4 12 bf
       0.31374487 0.117415756 0.28271514 -0.5728163
000370 9d 2d b7 3e fd 10 dc be 56 fd e7 be 4a cf 37 bd
       0.35776988 -0.4298171 -0.45310467 -0.04487542
000380 e5 56 97 3e d0 42 90 bb 5f e4 11 bf 13 84 1f 3f
       0.29558483 -0.004402496 -0.5698909 0.62310904
000390 ae ac 37 3e cd 23 e0 be 39 72 0b 3f 6b 05 2a bf
       0.17936966 -0.43777314 0.54471165 -0.6641452
0003a0 51 94 fc be 7a 88 fb be 85 cb 5e bd 27 66 25 3e
       -0.49331906 -0.4912756 -0.05439331 0.1615225
0003b0 ab 2f 62 3e 24 9c a6 3e 6c 67 e2 3d d7 ba 9f be
       0.22088496 0.32541 0.110548824 -0.31197235
0003c0 fc c6 5b bd fa 7f ca be c6 e1 c3 3d 1a 62 0f bf
       -0.053656563 -0.39550763 0.09564547 -0.56009066
0003d0 b3 c7 23 3e d0 67 ba be db 20 33 3d 92 bd 19 bf
       0.15994148 -0.36407328 0.043732505 -0.60054886
0003e0 3f 11 f0 3e aa c9 58 3d c3 d5 ca be a7 1c 0f bf
       0.46888158 0.052926697 -0.39616212 -0.55903095
0003f0 b1 29 fd 3e f8 72 c3 3d 4e 98 23 3f 84 ab 64 3e
       0.4944587 0.09543413 0.63904274 0.22331053

Wy.weight f4 [16, 256]
000000 95 f6 9c bd 57 53 8e bd 13 e0 82 be 19 12 46 3d
       -0.07664219 -0.069494896 -0.2556158 0.048357103
000010 82 0e 4e 3d 87 58 30 bd 5d 99 d2 bd 9e 44 eb 3d
       0.050306804 -0.043053176 -0.10283158 0.11487697
000020 f4 f8 89 be bb 60 ba bd 2d 8b 1f bd 67 17 6c bd
       -0.2694775 -0.09100481 -0.038951088 -0.057639506
000030 a4 2e 08 bd 57 da 7f bd 0b a7 ee 3d 77 cf 53 bd
       -0.033247605 -0.062464084 0.11652955 -0.051711526
000040 65 25 f1 bd 44 7e 97 3c b2 68 82 bd 60 b5 f4 be
       -0.117747106 0.018492825 -0.06367625 -0.47794628
000050 90 20 1d be 82 df 3c 3d 5d 70 0a be 06 ec af bd
       -0.15344453 0.04611159 -0.13519426 -0.0858994
000060 d7 1c b3 be 75 32 99 be af 90 aa bd af 32 3c be
       -0.3498294 -0.29921308 -0.083283775 -0.1837871
000070 9a 00 b3 3d fb 69 56 3d f4 62 15 be 00 dc 29 bd
       0.08740349 0.052347165 -0.14588529 -0.041469574
000080 00 83 80 3d ce a4 1a 3e 2a dd cd bb f7 6f 9a bd
       0.06274986 0.1510193 -0.0062824683 -0.07540887
000090 59 e6 e2 3d 70 af 49 bd 0b 95 15 bf cc b6 88 be
       0.110790916 -0.049239576 -0.58430547 -0.26701963
0000a0 d2 90 a4 be 69 d0 8f be 71 07 8f 3c 22 b2 90 3d
       -0.3214174 -0.28088692 0.017459603 0.07065226
0000b0 9a 81 29 bc 9e 07 fe bd f0 ca a3 bd 20 f2 2e bf
       -0.010345841 -0.124037966 -0.07997692 -0.68338203
0000c0 19 94 1e 3d dd 83 80 be 96 0c 58 bc d1 f3 b2 bd
       0.038715456 -0.25100604 -0.0131865945 -0.087379105
0000d0 a1 ca 22 3b 2d 3e c9 bd d0 dc 16 bd 49 35 33 be
       0.0024840015 -0.09826312 -0.036831677 -0.17500795
0000e0 5c 54 6c be 6d 93 83 be 02 d2 56 bd cb 2b 35 bd
       -0.23079056 -0.25698414 -0.052446373 -0.044231217
0000f0 f8 8b 1f bf df 32 9c bf 70 e7 38 3c e4 61 45 bd
       -0.6232295 -1.2203025 0.011285648 -0.04818906
000100 4f c4 97 bd 31 92 78 be 85 ec da bc 38 3c db 3d
       -0.0741049 -0.24274518 -0.02672411 0.10704845
000110 99 00 58 3d 68 01 ac bc 0a ff 48 bf da 76 1c 3c
       0.052734945 -0.020996764 -0.7851416 0.009549821
000120 0e 20 2b 3d b7 4b 92 bd 0b 61 3f bd e7 59 ad be
       0.041778617 -0.07143348 -0.046723407 -0.33857653
000130 94 9f 86 be e6 3d 2a be 9b 57 6f be 8a 8d 8f bf
       -0.26293623 -0.16625175 -0.23373263 -1.1215069
000140 7e bc 8f be f8 2f 90 3d 6d da 20 bf ef 0b 9e bc
       -0.28073496 0.07040399 -0.6283329 -0.0192928
000150 66 79 30 be 30 16 e3 be 9e ed 30 bc 74 1b 55 bd
       -0.1723381 -0.44352865 -0.01079884 -0.052028134
000160 6a 06 14 bf 92 99 15 bd 35 fc 92 bb 9b be b6 bd
       -0.5782229 -0.03652341 -0.004485632 -0.08923074
000170 f2 43 e5 bd a0 d7 93 3d ae f9 c9 bd 46 cb 72 bf
       -0.111946 0.072188616 -0.09862076 -0.9484142
000180 44 a8 e6 bd 55 b9 3c bd f5 4b 3f be 9b 54 a6 bd
       -0.11262563 -0.046075184 -0.18681319 -0.08121606
000190 c4 4a 4d be 80 73 19 bc 14 a1 c6 be 50 87 47 3d
       -0.20048052 -0.009365916 -0.38794768 0.04871303
0001a0 34 ae fb 3c e2 7f 68 3d da 61 98 bd bb 58 5f 3d
       0.030722715 0.056762584 -0.07440539 0.05452798
0001b0 43 86 2a be db d0 a8 bd 3f 44 6d bd ea 62 e8 3d
       -0.1665278 -0.08242961 -0.057926413 0.11346991
0001c0 ed f3 bf bd c2 c2 56 be 74 bb dd 3d 43 1d 12 3e
       -0.09372697 -0.20972732 0.108267695 0.14268975
0001d0 de d4 11 3c 56 1d cf be 33 54 48 be fe 73 bf bd
       0.008900849 -0.4045207 -0.1956337 -0.09348296
0001e0 0a eb 5a bd 0d a3 b7 bb 09 6a f3 bc 6e 69 87 be
       -0.053446807 -0.005604154 -0.029713647 -0.26447624
0001f0 51 f8 8a bd 8b cd c7 3d 4d 99 b0 be 84 78 81 be
       -0.06785644 0.09756001 -0.3449196 -0.2528726
000200 4e a5 e5 3d c2 44 90 bd 67 8f 90 bd 04 ec 32 bd
       0.1121317 -0.070443645 -0.07058602 -0.043682113
000210 e9 66 3a ba fd 76 5b bd cd 20 11 bd fc b6 3b be
       -0.0007110672 -0.053580273 -0.035431672 -0.18331522
000220 25 53 60 bd 47 8d 12 3c be 40 7e be 3a 9d 70 3d
       -0.054766793 0.008944816 -0.24829385 0.058743693
000230 b6 e5 16 bd ae e0 28 bd 84 0e dc be 63 11 0d 3d
       -0.036840163 -0.041229896 -0.42979825 0.03444041
000240 34 79 8b 3d 6e ae 0e be d4 52 06 be 4e 95 3f 3d
       0.06810227 -0.13933727 -0.13117534 0.046773247
000250 65 0c fc be 88 15 f2 be 74 a6 00 3c b0 9b 91 3d
       -0.49228206 -0.47282052 0.0078521855 0.07109773
000260 f5 a8 0b bd 9f c1 13 3d 27 1f 10 be 67 78 70 bd
       -0.034096677 0.036073323 -0.14074384 -0.058708575
000270 e5 9b a3 bd 18 67 1e 3e 00 fe bc bd af 6e 59 be
       -0.07988719 0.15469015 -0.09228134 -0.21233629
000280 8d b4 94 3c 6d b4 33 be f3 f1 b1 bc a8 c8 05 bf
       0.0181525 -0.17549296 -0.021721816 -0.522593
000290 91 96 f5 be c2 a4 35 3d 4d db b7 bd 11 7c 9c bd
       -0.47966436 0.04434658 -0.08977375 -0.07640851
0002a0 b0 88 f8 bd 43 63 0b bc c5 44 41 be 76 74 5e be
       -0.12135446 -0.008507553 -0.1887389 -0.21724114
0002b0 b3 ff ae 3d c0 bf 58 bd 36 a8 be be 37 1e ad bd
       0.085448645 -0.052917242 -0.3723771 -0.08453029
0002c0 71 6a 86 3d 4d e3 c3 3c 36 9e 1a 3e 3d 5d 84 be
       0.06563271 0.023912096 0.15099415 -0.25852385
0002d0 8c 36 83 bd 29 41 83 bc a0 7d 26 3d b6 98 79 bc
       -0.06406888 -0.016022282 0.04064715 -0.015234163
0002e0 63 95 21 bd 29 dd 4d bf 86 0d 39 be b6 82 9c bd
       -0.039449107 -0.8041559 -0.18071565 -0.07642119
0002f0 16 e5 36 3c 1a f1 ef bd ec 79 54 be d4 f4 06 be
       0.011163017 -0.11715908 -0.20749635 -0.13179332
000300 e6 ba 11 be 27 9e 8f bd 36 a7 2f bf c4 e5 ae 3d
       -0.14231452 -0.07012587 -0.6861452 0.08539918
000310 82 d1 ce bd f4 cb d9 3d f0 47 b0 bd 47 09 85 bc
       -0.10098554 0.10634604 -0.08607471 -0.016239775
000320 da 80 8c be 84 87 dc 3d b5 c3 e6 bc e4 b2 8c bd
       -0.27442056 0.10768035 -0.028169492 -0.06870058
000330 9b 34 a2 bd 8e a7 0b be 2f 2e 8d be 02 1a 7c bd
       -0.0792019 -0.13638136 -0.27574298 -0.06154824
000340 1a cf 21 be 1c ef d6 bc 66 e7 74 bd 83 eb 06 bc
       -0.15801659 -0.026237063 -0.05979099 -0.008234861
000350 ce 2c 2d bd 0a 09 0b 3c 3d 1a 4e bc 72 7d 66 bd
       -0.042279057 0.008486042 -0.012579498 -0.056271978
000360 e9 91 25 bd ce 95 45 bd 28 8e cd bd 86 0f 1f be
       -0.040422354 -0.048238568 -0.1003688 -0.15533265
000370 1e de b9 3d f5 8d a6 3d d6 06 ea 3c c5 7c 0e 3d
       0.090755686 0.08132545 0.028567713 0.03478696
000380 ec f1 95 3c 17 cb 12 bc b3 fa 90 bc 58 7d 88 bd
       0.018303834 -0.008959553 -0.017697668 -0.066645324
000390 f3 58 6f be 3b f6 ca 3c 29 24 23 3d 07 92 48 be
       -0.23373775 0.024775615 0.039829407 -0.19586955
0003a0 20 4d 47 bd 7e 89 23 bb 67 22 ff bc 70 7d 82 bd
       -0.048657537 -0.0024953778 -0.031144334 -0.063715816
0003b0 57 d7 83 bf a0 a0 2a bf 6c 6e 80 be 53 29 96 be
       -1.0300092 -0.66651344 -0.25084245 -0.29328403
0003c0 3d a7 89 3d 0b 36 de be 33 b5 f7 bd 50 85 fa bd
       0.06721351 -0.43400607 -0.12095108 -0.122324586
0003d0 ca d5 3c be 78 c9 6d 3d 16 93 c6 bd 35 a7 0e 3e
       -0.18440929 0.058053464 -0.09696023 0.13930972
0003e0 56 ea 20 3e 64 25 3b be 7d d7 30 3d c4 18 98 bd
       0.15714392 -0.18275982 0.043174256 -0.07426599
0003f0 fc 05 f0 bc 14 e7 6f be 47 e2 03 be b4 04 75 bc
       -0.029299729 -0.23427993 -0.12879287 -0.014954735

Wy.bias f4 [16]
000000 1f 93 ae 3a 5e 57 56 bd a1 0d d6 bc 82 97 2f be
       0.0013318992 -0.052329414 -0.026129546 -0.1714764
000010 cd 16 c6 bd 0f c2 8d bb 87 00 a5 3b 21 89 a5 3b
       -0.09672318 -0.004326112 0.0050354633 0.0050517474
000020 7e 10 6c bd 97 b6 73 bd dd 9c 54 3d 6c b3 0b 3b
       -0.057632916 -0.059500303 0.05190741 0.002131666
000030 50 7b 0b bb 0c b8 f2 bc bc 02 6f 3c 11 c0 c3 bd
       -0.0021283217 -0.029628776 0.014588054 -0.09558118
