lattice_test/rnn_models/rnn_sum_last4_numerical/model_perfect.pt (torch, 1859 bytes, 3 tensors)

hmlp.mlp.0.weight f4 [4, 5]
0	0x3d0a8a5c	0.033823356
1	0xbd5506ce	-0.052008443
2	0x3f6eef67	0.9333405
3	0xbf042eb2	-0.5163375
4	0xbd0e186b	-0.034691256
5	0x3e81931e	0.25307554
6	0x3ee69d14	0.45041716
7	0xbee09f0b	-0.4387134
8	0x3e9e1eed	0.3088297
9	0xbf673919	-0.903215
10	0xbdd60d58	-0.10451764
11	0x3eee2f17	0.46520302
12	0xbf44f420	-0.76935005
13	0xbf56e280	-0.8393936
14	0xbdbcdeb4	-0.09222165
15	0x3f1a70fe	0.6032866
16	0x3f5cbb31	0.8622313
17	0x3dbfca6c	0.09364781
18	0x3e91f7d8	0.28509402
19	0xbf0b864c	-0.54501796

hmlp.mlp.0.bias f4 [4]
0	0xbc863490	-0.016382486
1	0x3c1cec8b	0.009577881
2	0x3b5a873d	0.0033344768
3	0x3b903974	0.00440138

ymlp.mlp.0.weight f4 [1, 4]
0	0x3f237535	0.6385072
1	0xbf593453	-0.84845465
2	0xbe7b2624	-0.24526268
3	0xbedb0e65	-0.4278442
